[0:0:0] 10000 faces/split
Namespace(batch_size=64, epochs=50, limited=False, log_interval=50, lr=0.0001, model_epoch=50, no_cuda=False, num_workers=4, optimizer='adam', per_epoch=2, test_loss='mse', train_loss='mse', txt_input='./data/face_score_generated_dlib.txt')
Net_deep(
  (features): Sequential(
    (0): Conv2d(3, 32, kernel_size=(3, 3), stride=(1, 1), padding=(1, 1))
    (1): ReLU(inplace)
    (2): Conv2d(32, 32, kernel_size=(3, 3), stride=(1, 1), padding=(1, 1))
    (3): ReLU(inplace)
    (4): MaxPool2d(kernel_size=(2, 2), stride=(2, 2), dilation=(1, 1), ceil_mode=False)
    (5): Conv2d(32, 64, kernel_size=(3, 3), stride=(1, 1), padding=(1, 1))
    (6): ReLU(inplace)
    (7): Conv2d(64, 64, kernel_size=(3, 3), stride=(1, 1), padding=(1, 1))
    (8): ReLU(inplace)
    (9): MaxPool2d(kernel_size=(2, 2), stride=(2, 2), dilation=(1, 1), ceil_mode=False)
    (10): Conv2d(64, 128, kernel_size=(3, 3), stride=(1, 1), padding=(1, 1))
    (11): ReLU(inplace)
    (12): Conv2d(128, 128, kernel_size=(3, 3), stride=(1, 1), padding=(1, 1))
    (13): ReLU(inplace)
    (14): MaxPool2d(kernel_size=(2, 2), stride=(2, 2), dilation=(1, 1), ceil_mode=False)
    (15): Conv2d(128, 256, kernel_size=(3, 3), stride=(1, 1), padding=(1, 1))
    (16): ReLU(inplace)
    (17): Conv2d(256, 256, kernel_size=(3, 3), stride=(1, 1), padding=(1, 1))
    (18): ReLU(inplace)
    (19): MaxPool2d(kernel_size=(2, 2), stride=(2, 2), dilation=(1, 1), ceil_mode=False)
    (20): Conv2d(256, 512, kernel_size=(3, 3), stride=(1, 1), padding=(1, 1))
    (21): ReLU(inplace)
    (22): Conv2d(512, 512, kernel_size=(3, 3), stride=(1, 1), padding=(1, 1))
    (23): ReLU(inplace)
    (24): MaxPool2d(kernel_size=(2, 2), stride=(2, 2), dilation=(1, 1), ceil_mode=False)
  )
  (classifiers): Sequential(
    (0): Linear(in_features=512, out_features=512, bias=True)
    (1): Dropout(p=0.5, inplace)
    (2): Linear(in_features=512, out_features=1, bias=True)
  )
)
[0:0:1] Epoch: 1
[0:0:1] Testing
[0:0:1] Loading Testing set
[0:1:3] TESTING LOSS:3190.991549
[0:1:4] SROCC:0.013622
[0:1:4] LCC:0.049042
[0:1:4] Loading Training set
[0:1:29] Epoch_1 Split_1 [0/1500000 (0%)]	Loss: 3012.67
[0:1:29] SROCC:-0.025596
[0:1:29] LCC:-0.002498
[0:1:32] Epoch_1 Split_1 [30000/1500000 (2%)]	Loss: 517.62
[0:1:32] SROCC:-0.060623
…
