[0:0:0] 10000 faces/split
Logging data info to: ./log/data_log_0180.txt
Namespace(batch_size=64, data_log='./log/data_log_0180.txt', data_log_per_epoch=100, epochs=500, limited=False, log_interval=50, lr=0.0001, model_epoch=50, no_cuda=False, num_workers=4, optimizer='adam', reload_epoch=150, reload_model='./model/cuda_True_epoch_150', test_loss='mae', train_loss='mae', txt_input='./data/face_score_generated_dlib.txt')
Net_deep(
  (features): Sequential(
    (0): Conv2d(3, 32, kernel_size=(3, 3), stride=(1, 1), padding=(1, 1))
    (1): ReLU(inplace)
    (2): Conv2d(32, 32, kernel_size=(3, 3), stride=(1, 1), padding=(1, 1))
    (3): ReLU(inplace)
    (4): MaxPool2d(kernel_size=(2, 2), stride=(2, 2), dilation=(1, 1), ceil_mode=False)
    (5): Conv2d(32, 64, kernel_size=(3, 3), stride=(1, 1), padding=(1, 1))
    (6): ReLU(inplace)
    (7): Conv2d(64, 64, kernel_size=(3, 3), stride=(1, 1), padding=(1, 1))
    (8): ReLU(inplace)
    (9): MaxPool2d(kernel_size=(2, 2), stride=(2, 2), dilation=(1, 1), ceil_mode=False)
    (10): Conv2d(64, 128, kernel_size=(3, 3), stride=(1, 1), padding=(1, 1))
    (11): ReLU(inplace)
    (12): Conv2d(128, 128, kernel_size=(3, 3), stride=(1, 1), padding=(1, 1))
    (13): ReLU(inplace)
    (14): MaxPool2d(kernel_size=(2, 2), stride=(2, 2), dilation=(1, 1), ceil_mode=False)
    (15): Conv2d(128, 256, kernel_size=(3, 3), stride=(1, 1), padding=(1, 1))
    (16): ReLU(inplace)
    (17): Conv2d(256, 256, kernel_size=(3, 3), stride=(1, 1), padding=(1, 1))
    (18): ReLU(inplace)
    (19): MaxPool2d(kernel_size=(2, 2), stride=(2, 2), dilation=(1, 1), ceil_mode=False)
    (20): Conv2d(256, 512, kernel_size=(3, 3), stride=(1, 1), padding=(1, 1))
    (21): ReLU(inplace)
    (22): Conv2d(512, 512, kernel_size=(3, 3), stride=(1, 1), padding=(1, 1))
    (23): ReLU(inplace)
    (24): MaxPool2d(kernel_size=(2, 2), stride=(2, 2), dilation=(1, 1), ceil_mode=False)
  )
  (classifiers): Sequential(
    (0): Linear(in_features=512, out_features=512, bias=True)
    (1): Dropout(p=0.5, inplace)
    (2): Linear(in_features=512, out_features=1, bias=True)
  )
)
[0:0:1] Epoch: 151
[0:0:1] Loading Training set
[0:0:25] Epoch_151 Split_1 [0/1500000 (0%)]	Loss: 4.30
[0:0:25] LCC:0.921595
[0:0:25] SROCC:0.910165
[0:0:27] Epoch_151 Split_1 [30000/1500000 (2%)]	Loss: 4.73
[0:0:27] LCC:0.906825
[0:0:27] SROCC:0.899242
[0:0:29] Epoch_151 Split_1 [60000/1500000 (4%)]	Loss: 3.70
[0:0:29] LCC:0.953461
[0:0:29] SROCC:0.931914
…
