Namespace(data_log='./log/ft_log_180.txt', epoch_reload=0, epochs=5000, limited=False, load_model='./model/cuda_True_epoch_550', lr=5e-06, model_epoch=200, model_reload='', model_save='./model/ft180', optimizer='adam', test_loss='mse', train_loss='mse')
Net_deep(
  (features): Sequential(
    (0): Conv2d(3, 32, kernel_size=(3, 3), stride=(1, 1), padding=(1, 1))
    (1): ReLU(inplace)
    (2): Conv2d(32, 32, kernel_size=(3, 3), stride=(1, 1), padding=(1, 1))
    (3): ReLU(inplace)
    (4): MaxPool2d(kernel_size=(2, 2), stride=(2, 2), dilation=(1, 1), ceil_mode=False)
    (5): Conv2d(32, 64, kernel_size=(3, 3), stride=(1, 1), padding=(1, 1))
    (6): ReLU(inplace)
    (7): Conv2d(64, 64, kernel_size=(3, 3), stride=(1, 1), padding=(1, 1))
    (8): ReLU(inplace)
    (9): MaxPool2d(kernel_size=(2, 2), stride=(2, 2), dilation=(1, 1), ceil_mode=False)
    (10): Conv2d(64, 128, kernel_size=(3, 3), stride=(1, 1), padding=(1, 1))
    (11): ReLU(inplace)
    (12): Conv2d(128, 128, kernel_size=(3, 3), stride=(1, 1), padding=(1, 1))
    (13): ReLU(inplace)
    (14): MaxPool2d(kernel_size=(2, 2), stride=(2, 2), dilation=(1, 1), ceil_mode=False)
    (15): Conv2d(128, 256, kernel_size=(3, 3), stride=(1, 1), padding=(1, 1))
    (16): ReLU(inplace)
    (17): Conv2d(256, 256, kernel_size=(3, 3), stride=(1, 1), padding=(1, 1))
    (18): ReLU(inplace)
    (19): MaxPool2d(kernel_size=(2, 2), stride=(2, 2), dilation=(1, 1), ceil_mode=False)
    (20): Conv2d(256, 512, kernel_size=(3, 3), stride=(1, 1), padding=(1, 1))
    (21): ReLU(inplace)
    (22): Conv2d(512, 512, kernel_size=(3, 3), stride=(1, 1), padding=(1, 1))
    (23): ReLU(inplace)
    (24): MaxPool2d(kernel_size=(2, 2), stride=(2, 2), dilation=(1, 1), ceil_mode=False)
  )
  (classifiers): Sequential(
    (0): Linear(in_features=512, out_features=512, bias=True)
    (1): Dropout(p=0.5, inplace)
    (2): Linear(in_features=512, out_features=1, bias=True)
  )
)
test loss:174.5934 lcc:0.8656 srocc:0.9309
train epoch:1 percent:0.000000 loss:333.5136 lcc:0.9473 srocc:0.8692
test loss:168.2737 lcc:0.8688 srocc:0.9275
train epoch:2 percent:0.000000 loss:143.2950 lcc:0.8145 srocc:0.8909
train epoch:3 percent:0.000000 loss:88.0010 lcc:0.9377 srocc:0.9329
train epoch:4 percent:0.000000 loss:187.9546 lcc:0.8608 srocc:0.8129
…
