Namespace(data_log='./log/live_log_180.txt', epoch_reload=0, epochs=5000, limited=False, load_model='', lr=1e-05, model_epoch=1000, model_reload='', model_save='./model/pure_live', optimizer='adam', test_loss='mse', train_loss='mse')
Net_deep(
  (features): Sequential(
    (0): Conv2d(3, 32, kernel_size=(3, 3), stride=(1, 1), padding=(1, 1))
    (1): ReLU(inplace)
    (2): Conv2d(32, 32, kernel_size=(3, 3), stride=(1, 1), padding=(1, 1))
    (3): ReLU(inplace)
    (4): MaxPool2d(kernel_size=(2, 2), stride=(2, 2), dilation=(1, 1), ceil_mode=False)
    (5): Conv2d(32, 64, kernel_size=(3, 3), stride=(1, 1), padding=(1, 1))
    (6): ReLU(inplace)
    (7): Conv2d(64, 64, kernel_size=(3, 3), stride=(1, 1), padding=(1, 1))
    (8): ReLU(inplace)
    (9): MaxPool2d(kernel_size=(2, 2), stride=(2, 2), dilation=(1, 1), ceil_mode=False)
    (10): Conv2d(64, 128, kernel_size=(3, 3), stride=(1, 1), padding=(1, 1))
    (11): ReLU(inplace)
    (12): Conv2d(128, 128, kernel_size=(3, 3), stride=(1, 1), padding=(1, 1))
    (13): ReLU(inplace)
    (14): MaxPool2d(kernel_size=(2, 2), stride=(2, 2), dilation=(1, 1), ceil_mode=False)
    (15): Conv2d(128, 256, kernel_size=(3, 3), stride=(1, 1), padding=(1, 1))
    (16): ReLU(inplace)
    (17): Conv2d(256, 256, kernel_size=(3, 3), stride=(1, 1), padding=(1, 1))
    (18): ReLU(inplace)
    (19): MaxPool2d(kernel_size=(2, 2), stride=(2, 2), dilation=(1, 1), ceil_mode=False)
    (20): Conv2d(256, 512, kernel_size=(3, 3), stride=(1, 1), padding=(1, 1))
    (21): ReLU(inplace)
    (22): Conv2d(512, 512, kernel_size=(3, 3), stride=(1, 1), padding=(1, 1))
    (23): ReLU(inplace)
    (24): MaxPool2d(kernel_size=(2, 2), stride=(2, 2), dilation=(1, 1), ceil_mode=False)
  )
  (classifiers): Sequential(
    (0): Linear(in_features=512, out_features=512, bias=True)
    (1): Dropout(p=0.5, inplace)
    (2): Linear(in_features=512, out_features=1, bias=True)
  )
)
test loss:1697.7099 lcc:0.0305 srocc:0.0354
train epoch:1 percent:0.000000 loss:1590.7476 lcc:-0.5166 srocc:-0.6065
test loss:1554.7100 lcc:0.1367 srocc:-0.0409
train epoch:2 percent:0.000000 loss:820.3369 lcc:0.2481 srocc:0.3647
test loss:1129.6216 lcc:0.1181 srocc:-0.1043
train epoch:3 percent:0.000000 loss:1178.3647 lcc:-0.2208 srocc:0.0426
test loss:508.0270 lcc:0.1014 srocc:-0.0734
…
