Namespace(batch_size=32, data_log='./log/ft12/live_180.txt', dataset='live', epoch_reload=0, epochs=500, load_model='./model/scratch/cuda_True_epoch_550', lr=1e-05, mode='ft12', model_epoch=100, model_reload='', model_save='./model/ft12/live', num_workers=4, optimizer='adam', test_loss='mae', train_loss='mae')
Net_deep(
  (features): Sequential(
    (0): Conv2d(3, 32, kernel_size=(3, 3), stride=(1, 1), padding=(1, 1))
    (1): ReLU(inplace)
    (2): Conv2d(32, 32, kernel_size=(3, 3), stride=(1, 1), padding=(1, 1))
    (3): ReLU(inplace)
    (4): MaxPool2d(kernel_size=(2, 2), stride=(2, 2), dilation=(1, 1), ceil_mode=False)
    (5): Conv2d(32, 64, kernel_size=(3, 3), stride=(1, 1), padding=(1, 1))
    (6): ReLU(inplace)
    (7): Conv2d(64, 64, kernel_size=(3, 3), stride=(1, 1), padding=(1, 1))
    (8): ReLU(inplace)
    (9): MaxPool2d(kernel_size=(2, 2), stride=(2, 2), dilation=(1, 1), ceil_mode=False)
    (10): Conv2d(64, 128, kernel_size=(3, 3), stride=(1, 1), padding=(1, 1))
    (11): ReLU(inplace)
    (12): Conv2d(128, 128, kernel_size=(3, 3), stride=(1, 1), padding=(1, 1))
    (13): ReLU(inplace)
    (14): MaxPool2d(kernel_size=(2, 2), stride=(2, 2), dilation=(1, 1), ceil_mode=False)
    (15): Conv2d(128, 256, kernel_size=(3, 3), stride=(1, 1), padding=(1, 1))
    (16): ReLU(inplace)
    (17): Conv2d(256, 256, kernel_size=(3, 3), stride=(1, 1), padding=(1, 1))
    (18): ReLU(inplace)
    (19): MaxPool2d(kernel_size=(2, 2), stride=(2, 2), dilation=(1, 1), ceil_mode=False)
    (20): Conv2d(256, 512, kernel_size=(3, 3), stride=(1, 1), padding=(1, 1))
    (21): ReLU(inplace)
    (22): Conv2d(512, 512, kernel_size=(3, 3), stride=(1, 1), padding=(1, 1))
    (23): ReLU(inplace)
    (24): MaxPool2d(kernel_size=(2, 2), stride=(2, 2), dilation=(1, 1), ceil_mode=False)
  )
  (classifiers): Sequential(
    (0): Linear(in_features=512, out_features=512, bias=True)
    (1): Dropout(p=0.5, inplace)
    (2): Linear(in_features=512, out_features=512, bias=True)
    (fc3): Linear(in_features=512, out_features=1, bias=True)
  )
  (logistic): Logistic(
  )
)
test loss:34.9212 lcc:-0.8871 srocc:-0.9184
train epoch:1 percent:0.000000 loss:5.5501 lcc:0.9461 srocc:0.9515
test loss:5.5008 lcc:0.9521 srocc:0.9554
train epoch:2 percent:0.000000 loss:8.0005 lcc:0.8660 srocc:0.6930
test loss:4.9434 lcc:0.9583 srocc:0.9594
train epoch:3 percent:0.000000 loss:6.2942 lcc:0.9321 srocc:0.9030
…
